{"format": "graph-model", "generatedBy": "2.13.1", "convertedBy": "TensorFlow.js Converter v4.19.0", "signature": {"outputs": {"Identity:0": {"name": "Identity:0"}}}, "modelTopology": {"node": [{"name": "3380", "op": "Const", "attr": {"value": {"tensor": {"dtype": "DT_INT64", "tensorShape": {"dim": [{"size": "4"}]}}}, "dtype": {"type": "DT_INT64"}}}, {"name": "3382", "op": "Const", "attr": {"value": {"tensor": {"dtype": "DT_INT64", "tensorShape": {"dim": [{"size": "4"}]}}}, "dtype": {"type": "DT_INT64"}}}, {"name": "PartitionedCall/model/tf.strided_slice_6/ones_like", "op": "Const", "attr": {"value": {"tensor": {"dtype": "DT_INT64", "tensorShape": {"dim": [{"size": "4"}]}}}, "dtype": {"type": "DT_INT64"}}}, {"name": "3350", "op": "Const", "attr": {"value": {"tensor": {"dtype": "DT_INT64", "tensorShape": {"dim": [{"size": "4"}]}}}, "dtype": {"type": "DT_INT64"}}}, {"name": "3352", "op": "Const", "attr": {"value": {"tensor": {"dtype": "DT_INT64", "tensorShape": {"dim": [{"size": "4"}]}}}, "dtype": {"type": "DT_INT64"}}}, {"name": "PartitionedCall/model/tf.strided_slice_4/ones_like", "op": "Const", "attr": {"value": {"tensor": {"dtype": "DT_INT64", "tensorShape": {"dim": [{"size": "4"}]}}}, "dtype": {"type": "DT_INT64"}}}, {"name": "3312", "op": "Const", "attr": {"value": {"tensor": {"dtype": "DT_INT64", "tensorShape": {"dim": [{"size": "4"}]}}}, "dtype": {"type": "DT_INT64"}}}, {"name": "3314", "op": "Const", "attr": {"value": {"tensor": {"dtype": "DT_INT64", "tensorShape": {"dim": [{"size": "4"}]}}}, "dtype": {"type": "DT_INT64"}}}, {"name": "PartitionedCall/model/tf.strided_slice_2/ones_like", "op": "Const", "attr": {"value": {"tensor": {"dtype": "DT_INT64", "tensorShape": {"dim": [{"size": "4"}]}}}, "dtype": {"type": "DT_INT64"}}}, {"name": "3274", "op": "Const", "attr": {"value": {"tensor": {"dtype": "DT_INT64", "tensorShape": {"dim": [{"size": "4"}]}}}, "dtype": {"type": "DT_INT64"}}}, {"name": "3276", "op": "Const", "attr": {"value": {"tensor": {"dtype": "DT_INT64", "tensorShape": {"dim": [{"size": "4"}]}}}, "dtype": {"type": "DT_INT64"}}}, {"name": "PartitionedCall/model/tf.strided_slice/ones_like", "op": "Const", "attr": {"value": {"tensor": {"dtype": "DT_INT64", "tensorShape": {"dim": [{"size": "4"}]}}}, "dtype": {"type": "DT_INT64"}}}, {"name": "3246", "op": "Const", "attr": {"value": {"tensor": {"dtype": "DT_INT32", "tensorShape": {"dim": [{"size": "4"}, {"size": "2"}]}}}, "dtype": {"type": "DT_INT32"}}}, {"name": "3248", "op": "Const", "attr": {"value": {"tensor": {"dtype": "DT_FLOAT", "tensorShape": {"dim": [{"size": "3"}, {"size": "3"}, {"size": "3"}, {"size": "16"}]}}}, "dtype": {"type": "DT_FLOAT"}}}, {"name": "3250", "op": "Const", "attr": {"value": {"tensor": {"dtype": "DT_FLOAT", "tensorShape": {"dim": [{"size": "16"}]}}}, "dtype": {"type": "DT_FLOAT"}}}, {"name": "3252", "op": "Const", "attr": {"value": {"tensor": {"dtype": "DT_INT32", "tensorShape": {"dim": [{"size": "4"}, {"size": "2"}]}}}, "dtype": {"type": "DT_INT32"}}}, {"name": "3254", "op": "Const", "attr": {"value": {"tensor": {"dtype": "DT_FLOAT", "tensorShape": {"dim": [{"size": "3"}, {"size": "3"}, {"size": "16"}, {"size": "32"}]}}}, "dtype": {"type": "DT_FLOAT"}}}, {"name": "3256", "op": "Const", "attr": {"value": {"tensor": {"dtype": "DT_FLOAT", "tensorShape": {"dim": [{"size": "32"}]}}}, "dtype": {"type": "DT_FLOAT"}}}, {"name": "3258", "op": "Const", "attr": {"value": {"tensor": {"dtype": "DT_FLOAT", "tensorShape": {"dim": [{"size": "1"}, {"size": "1"}, {"size": "32"}, {"size": "32"}]}}}, "dtype": {"type": "DT_FLOAT"}}}, {"name": "3260", "op": "Const", "attr": {"value": {"tensor": {"dtype": "DT_FLOAT", "tensorShape": {"dim": [{"size": "32"}]}}}, "dtype": {"type": "DT_FLOAT"}}}, {"name": "3262", "op": "Const", "attr": {"value": {"tensor": {"dtype": "DT_INT64", "tensorShape": {"dim": [{"size": "4"}]}}}, "dtype": {"type": "DT_INT64"}}}, {"name": "3264", "op": "Const", "attr": {"value": {"tensor": {"dtype": "DT_INT64", "tensorShape": {"dim": [{"size": "4"}]}}}, "dtype": {"type": "DT_INT64"}}}, {"name": "PartitionedCall/model/tf.strided_slice_1/ones_like", "op": "Const", "attr": {"value": {"tensor": {"dtype": "DT_INT64", "tensorShape": {"dim": [{"size": "4"}]}}}, "dtype": {"type": "DT_INT64"}}}, {"name": "3266", "op": "Const", "attr": {"value": {"tensor": {"dtype": "DT_FLOAT", "tensorShape": {"dim": [{"size": "3"}, {"size": "3"}, {"size": "16"}, {"size": "16"}]}}}, "dtype": {"type": "DT_FLOAT"}}}, {"name": "3268", "op": "Const", "attr": {"value": {"tensor": {"dtype": "DT_FLOAT", "tensorShape": {"dim": [{"size": "16"}]}}}, "dtype": {"type": "DT_FLOAT"}}}, {"name": "3270", "op": "Const", "attr": {"value": {"tensor": {"dtype": "DT_FLOAT", "tensorShape": {"dim": [{"size": "3"}, {"size": "3"}, {"size": "16"}, {"size": "16"}]}}}, "dtype": {"type": "DT_FLOAT"}}}, {"name": "3272", "op": "Const", "attr": {"value": {"tensor": {"dtype": "DT_FLOAT", "tensorShape": {"dim": [{"size": "16"}]}}}, "dtype": {"type": "DT_FLOAT"}}}, {"name": "PartitionedCall/model/tf.concat/concat/axis", "op": "Const", "attr": {"value": {"tensor": {"dtype": "DT_INT32", "tensorShape": {}}}, "dtype": {"type": "DT_INT32"}}}, {"name": "3278", "op": "Const", "attr": {"value": {"tensor": {"dtype": "DT_FLOAT", "tensorShape": {"dim": [{"size": "1"}, {"size": "1"}, {"size": "48"}, {"size": "32"}]}}}, "dtype": {"type": "DT_FLOAT"}}}, {"name": "3280", "op": "Const", "attr": {"value": {"tensor": {"dtype": "DT_FLOAT", "tensorShape": {"dim": [{"size": "32"}]}}}, "dtype": {"type": "DT_FLOAT"}}}, {"name": "3282", "op": "Const", "attr": {"value": {"tensor": {"dtype": "DT_INT32", "tensorShape": {"dim": [{"size": "4"}, {"size": "2"}]}}}, "dtype": {"type": "DT_INT32"}}}, {"name": "3284", "op": "Const", "attr": {"value": {"tensor": {"dtype": "DT_FLOAT", "tensorShape": {"dim": [{"size": "3"}, {"size": "3"}, {"size": "32"}, {"size": "64"}]}}}, "dtype": {"type": "DT_FLOAT"}}}, {"name": "3286", "op": "Const", "attr": {"value": {"tensor": {"dtype": "DT_FLOAT", "tensorShape": {"dim": [{"size": "64"}]}}}, "dtype": {"type": "DT_FLOAT"}}}, {"name": "3288", "op": "Const", "attr": {"value": {"tensor": {"dtype": "DT_FLOAT", "tensorShape": {"dim": [{"size": "1"}, {"size": "1"}, {"size": "64"}, {"size": "64"}]}}}, "dtype": {"type": "DT_FLOAT"}}}, {"name": "3290", "op": "Const", "attr": {"value": {"tensor": {"dtype": "DT_FLOAT", "tensorShape": {"dim": [{"size": "64"}]}}}, "dtype": {"type": "DT_FLOAT"}}}, {"name": "3292", "op": "Const", "attr": {"value": {"tensor": {"dtype": "DT_INT64", "tensorShape": {"dim": [{"size": "4"}]}}}, "dtype": {"type": "DT_INT64"}}}, {"name": "3294", "op": "Const", "attr": {"value": {"tensor": {"dtype": "DT_INT64", "tensorShape": {"dim": [{"size": "4"}]}}}, "dtype": {"type": "DT_INT64"}}}, {"name": "PartitionedCall/model/tf.strided_slice_3/ones_like", "op": "Const", "attr": {"value": {"tensor": {"dtype": "DT_INT64", "tensorShape": {"dim": [{"size": "4"}]}}}, "dtype": {"type": "DT_INT64"}}}, {"name": "3296", "op": "Const", "attr": {"value": {"tensor": {"dtype": "DT_FLOAT", "tensorShape": {"dim": [{"size": "3"}, {"size": "3"}, {"size": "32"}, {"size": "32"}]}}}, "dtype": {"type": "DT_FLOAT"}}}, {"name": "3298", "op": "Const", "attr": {"value": {"tensor": {"dtype": "DT_FLOAT", "tensorShape": {"dim": [{"size": "32"}]}}}, "dtype": {"type": "DT_FLOAT"}}}, {"name": "3300", "op": "Const", "attr": {"value": {"tensor": {"dtype": "DT_FLOAT", "tensorShape": {"dim": [{"size": "3"}, {"size": "3"}, {"size": "32"}, {"size": "32"}]}}}, "dtype": {"type": "DT_FLOAT"}}}, {"name": "3302", "op": "Const", "attr": {"value": {"tensor": {"dtype": "DT_FLOAT", "tensorShape": {"dim": [{"size": "32"}]}}}, "dtype": {"type": "DT_FLOAT"}}}, {"name": "3304", "op": "Const", "attr": {"value": {"tensor": {"dtype": "DT_FLOAT", "tensorShape": {"dim": [{"size": "3"}, {"size": "3"}, {"size": "32"}, {"size": "32"}]}}}, "dtype": {"type": "DT_FLOAT"}}}, {"name": "3306", "op": "Const", "attr": {"value": {"tensor": {"dtype": "DT_FLOAT", "tensorShape": {"dim": [{"size": "32"}]}}}, "dtype": {"type": "DT_FLOAT"}}}, {"name": "3308", "op": "Const", "attr": {"value": {"tensor": {"dtype": "DT_FLOAT", "tensorShape": {"dim": [{"size": "3"}, {"size": "3"}, {"size": "32"}, {"size": "32"}]}}}, "dtype": {"type": "DT_FLOAT"}}}, {"name": "3310", "op": "Const", "attr": {"value": {"tensor": {"dtype": "DT_FLOAT", "tensorShape": {"dim": [{"size": "32"}]}}}, "dtype": {"type": "DT_FLOAT"}}}, {"name": "PartitionedCall/model/tf.concat_1/concat/axis", "op": "Const", "attr": {"value": {"tensor": {"dtype": "DT_INT32", "tensorShape": {}}}, "dtype": {"type": "DT_INT32"}}}, {"name": "3316", "op": "Const", "attr": {"value": {"tensor": {"dtype": "DT_FLOAT", "tensorShape": {"dim": [{"size": "1"}, {"size": "1"}, {"size": "128"}, {"size": "64"}]}}}, "dtype": {"type": "DT_FLOAT"}}}, {"name": "3318", "op": "Const", "attr": {"value": {"tensor": {"dtype": "DT_FLOAT", "tensorShape": {"dim": [{"size": "64"}]}}}, "dtype": {"type": "DT_FLOAT"}}}, {"name": "3320", "op": "Const", "attr": {"value": {"tensor": {"dtype": "DT_INT32", "tensorShape": {"dim": [{"size": "4"}, {"size": "2"}]}}}, "dtype": {"type": "DT_INT32"}}}, {"name": "3322", "op": "Const", "attr": {"value": {"tensor": {"dtype": "DT_FLOAT", "tensorShape": {"dim": [{"size": "3"}, {"size": "3"}, {"size": "64"}, {"size": "128"}]}}}, "dtype": {"type": "DT_FLOAT"}}}, {"name": "3324", "op": "Const", "attr": {"value": {"tensor": {"dtype": "DT_FLOAT", "tensorShape": {"dim": [{"size": "128"}]}}}, "dtype": {"type": "DT_FLOAT"}}}, {"name": "3326", "op": "Const", "attr": {"value": {"tensor": {"dtype": "DT_FLOAT", "tensorShape": {"dim": [{"size": "1"}, {"size": "1"}, {"size": "128"}, {"size": "128"}]}}}, "dtype": {"type": "DT_FLOAT"}}}, {"name": "3328", "op": "Const", "attr": {"value": {"tensor": {"dtype": "DT_FLOAT", "tensorShape": {"dim": [{"size": "128"}]}}}, "dtype": {"type": "DT_FLOAT"}}}, {"name": "3330", "op": "Const", "attr": {"value": {"tensor": {"dtype": "DT_INT64", "tensorShape": {"dim": [{"size": "4"}]}}}, "dtype": {"type": "DT_INT64"}}}, {"name": "3332", "op": "Const", "attr": {"value": {"tensor": {"dtype": "DT_INT64", "tensorShape": {"dim": [{"size": "4"}]}}}, "dtype": {"type": "DT_INT64"}}}, {"name": "PartitionedCall/model/tf.strided_slice_5/ones_like", "op": "Const", "attr": {"value": {"tensor": {"dtype": "DT_INT64", "tensorShape": {"dim": [{"size": "4"}]}}}, "dtype": {"type": "DT_INT64"}}}, {"name": "3334", "op": "Const", "attr": {"value": {"tensor": {"dtype": "DT_FLOAT", "tensorShape": {"dim": [{"size": "3"}, {"size": "3"}, {"size": "64"}, {"size": "64"}]}}}, "dtype": {"type": "DT_FLOAT"}}}, {"name": "3336", "op": "Const", "attr": {"value": {"tensor": {"dtype": "DT_FLOAT", "tensorShape": {"dim": [{"size": "64"}]}}}, "dtype": {"type": "DT_FLOAT"}}}, {"name": "3338", "op": "Const", "attr": {"value": {"tensor": {"dtype": "DT_FLOAT", "tensorShape": {"dim": [{"size": "3"}, {"size": "3"}, {"size": "64"}, {"size": "64"}]}}}, "dtype": {"type": "DT_FLOAT"}}}, {"name": "3340", "op": "Const", "attr": {"value": {"tensor": {"dtype": "DT_FLOAT", "tensorShape": {"dim": [{"size": "64"}]}}}, "dtype": {"type": "DT_FLOAT"}}}, {"name": "3342", "op": "Const", "attr": {"value": {"tensor": {"dtype": "DT_FLOAT", "tensorShape": {"dim": [{"size": "3"}, {"size": "3"}, {"size": "64"}, {"size": "64"}]}}}, "dtype": {"type": "DT_FLOAT"}}}, {"name": "3344", "op": "Const", "attr": {"value": {"tensor": {"dtype": "DT_FLOAT", "tensorShape": {"dim": [{"size": "64"}]}}}, "dtype": {"type": "DT_FLOAT"}}}, {"name": "3346", "op": "Const", "attr": {"value": {"tensor": {"dtype": "DT_FLOAT", "tensorShape": {"dim": [{"size": "3"}, {"size": "3"}, {"size": "64"}, {"size": "64"}]}}}, "dtype": {"type": "DT_FLOAT"}}}, {"name": "3348", "op": "Const", "attr": {"value": {"tensor": {"dtype": "DT_FLOAT", "tensorShape": {"dim": [{"size": "64"}]}}}, "dtype": {"type": "DT_FLOAT"}}}, {"name": "PartitionedCall/model/tf.concat_2/concat/axis", "op": "Const", "attr": {"value": {"tensor": {"dtype": "DT_INT32", "tensorShape": {}}}, "dtype": {"type": "DT_INT32"}}}, {"name": "3354", "op": "Const", "attr": {"value": {"tensor": {"dtype": "DT_FLOAT", "tensorShape": {"dim": [{"size": "1"}, {"size": "1"}, {"size": "256"}, {"size": "128"}]}}}, "dtype": {"type": "DT_FLOAT"}}}, {"name": "3356", "op": "Const", "attr": {"value": {"tensor": {"dtype": "DT_FLOAT", "tensorShape": {"dim": [{"size": "128"}]}}}, "dtype": {"type": "DT_FLOAT"}}}, {"name": "3358", "op": "Const", "attr": {"value": {"tensor": {"dtype": "DT_INT32", "tensorShape": {"dim": [{"size": "4"}, {"size": "2"}]}}}, "dtype": {"type": "DT_INT32"}}}, {"name": "3360", "op": "Const", "attr": {"value": {"tensor": {"dtype": "DT_FLOAT", "tensorShape": {"dim": [{"size": "3"}, {"size": "3"}, {"size": "128"}, {"size": "256"}]}}}, "dtype": {"type": "DT_FLOAT"}}}, {"name": "3362", "op": "Const", "attr": {"value": {"tensor": {"dtype": "DT_FLOAT", "tensorShape": {"dim": [{"size": "256"}]}}}, "dtype": {"type": "DT_FLOAT"}}}, {"name": "3364", "op": "Const", "attr": {"value": {"tensor": {"dtype": "DT_FLOAT", "tensorShape": {"dim": [{"size": "1"}, {"size": "1"}, {"size": "256"}, {"size": "256"}]}}}, "dtype": {"type": "DT_FLOAT"}}}, {"name": "3366", "op": "Const", "attr": {"value": {"tensor": {"dtype": "DT_FLOAT", "tensorShape": {"dim": [{"size": "256"}]}}}, "dtype": {"type": "DT_FLOAT"}}}, {"name": "3368", "op": "Const", "attr": {"value": {"tensor": {"dtype": "DT_INT64", "tensorShape": {"dim": [{"size": "4"}]}}}, "dtype": {"type": "DT_INT64"}}}, {"name": "3370", "op": "Const", "attr": {"value": {"tensor": {"dtype": "DT_INT64", "tensorShape": {"dim": [{"size": "4"}]}}}, "dtype": {"type": "DT_INT64"}}}, {"name": "PartitionedCall/model/tf.strided_slice_7/ones_like", "op": "Const", "attr": {"value": {"tensor": {"dtype": "DT_INT64", "tensorShape": {"dim": [{"size": "4"}]}}}, "dtype": {"type": "DT_INT64"}}}, {"name": "3372", "op": "Const", "attr": {"value": {"tensor": {"dtype": "DT_FLOAT", "tensorShape": {"dim": [{"size": "3"}, {"size": "3"}, {"size": "128"}, {"size": "128"}]}}}, "dtype": {"type": "DT_FLOAT"}}}, {"name": "3374", "op": "Const", "attr": {"value": {"tensor": {"dtype": "DT_FLOAT", "tensorShape": {"dim": [{"size": "128"}]}}}, "dtype": {"type": "DT_FLOAT"}}}, {"name": "3376", "op": "Const", "attr": {"value": {"tensor": {"dtype": "DT_FLOAT", "tensorShape": {"dim": [{"size": "3"}, {"size": "3"}, {"size": "128"}, {"size": "128"}]}}}, "dtype": {"type": "DT_FLOAT"}}}, {"name": "3378", "op": "Const", "attr": {"value": {"tensor": {"dtype": "DT_FLOAT", "tensorShape": {"dim": [{"size": "128"}]}}}, "dtype": {"type": "DT_FLOAT"}}}, {"name": "PartitionedCall/model/tf.concat_3/concat/axis", "op": "Const", "attr": {"value": {"tensor": {"dtype": "DT_INT32", "tensorShape": {}}}, "dtype": {"type": "DT_INT32"}}}, {"name": "3384", "op": "Const", "attr": {"value": {"tensor": {"dtype": "DT_FLOAT", "tensorShape": {"dim": [{"size": "1"}, {"size": "1"}, {"size": "384"}, {"size": "256"}]}}}, "dtype": {"type": "DT_FLOAT"}}}, {"name": "3386", "op": "Const", "attr": {"value": {"tensor": {"dtype": "DT_FLOAT", "tensorShape": {"dim": [{"size": "256"}]}}}, "dtype": {"type": "DT_FLOAT"}}}, {"name": "3388", "op": "Const", "attr": {"value": {"tensor": {"dtype": "DT_FLOAT", "tensorShape": {"dim": [{"size": "1"}, {"size": "1"}, {"size": "256"}, {"size": "1280"}]}}}, "dtype": {"type": "DT_FLOAT"}}}, {"name": "3390", "op": "Const", "attr": {"value": {"tensor": {"dtype": "DT_FLOAT", "tensorShape": {"dim": [{"size": "1280"}]}}}, "dtype": {"type": "DT_FLOAT"}}}, {"name": "PartitionedCall/model/tf.math.reduce_mean/Mean/reduction_indices", "op": "Const", "attr": {"value": {"tensor": {"dtype": "DT_INT32", "tensorShape": {"dim": [{"size": "2"}]}}}, "dtype": {"type": "DT_INT32"}}}, {"name": "PartitionedCall/model/tf.compat.v1.transpose/transpose/perm", "op": "Const", "attr": {"value": {"tensor": {"dtype": "DT_INT32", "tensorShape": {"dim": [{"size": "4"}]}}}, "dtype": {"type": "DT_INT32"}}}, {"name": "PartitionedCall/model/tf.reshape/Reshape/shape", "op": "Const", "attr": {"value": {"tensor": {"dtype": "DT_INT32", "tensorShape": {"dim": [{"size": "2"}]}}}, "dtype": {"type": "DT_INT32"}}}, {"name": "3392", "op": "Const", "attr": {"value": {"tensor": {"dtype": "DT_FLOAT", "tensorShape": {"dim": [{"size": "1280"}, {"size": "5"}]}}}, "dtype": {"type": "DT_FLOAT"}}}, {"name": "3396", "op": "Const", "attr": {"value": {"tensor": {"dtype": "DT_FLOAT", "tensorShape": {"dim": [{"size": "5"}]}}}, "dtype": {"type": "DT_FLOAT"}}}, {"name": "x", "op": "Placeholder", "attr": {"shape": {"shape": {"dim": [{"size": "1"}, {"size": "224"}, {"size": "224"}, {"size": "3"}]}}, "dtype": {"type": "DT_FLOAT"}}}, {"name": "PartitionedCall/model/tf.compat.v1.pad/Pad", "op": "Pad", "input": ["x", "3246"], "attr": {"Tpaddings": {"type": "DT_INT32"}, "T": {"type": "DT_FLOAT"}}}, {"name": "PartitionedCall/model/tf.math.add/Add", "op": "_FusedConv2D", "input": ["PartitionedCall/model/tf.compat.v1.pad/Pad", "3248", "3250"], "device": "/device:CPU:0", "attr": {"num_host_args": {"i": "0"}, "data_format": {"s": "TkhXQw=="}, "filter_format": {"s": "SFdJTw=="}, "fused_ops": {"list": {"s": ["Qmlhc0FkZA=="]}}, "num_args": {"i": "1"}, "strides": {"list": {"i": ["1", "2", "2", "1"]}}, "TArgs": {"list": {"type": ["DT_FLOAT"]}}, "padding": {"s": "VkFMSUQ="}, "use_cudnn_on_gpu": {"b": true}, "leakyrelu_alpha": {"f": 0.2}, "epsilon": {"f": 0.0}, "T": {"type": "DT_FLOAT"}, "explicit_paddings": {"list": {}}, "dilations": {"list": {"i": ["1", "1", "1", "1"]}}}}, {"name": "PartitionedCall/model/tf.math.sigmoid/Sigmoid", "op": "Sigmoid", "input": ["PartitionedCall/model/tf.math.add/Add"], "attr": {"T": {"type": "DT_FLOAT"}}}, {"name": "PartitionedCall/model/tf.math.multiply_2/Mul", "op": "Mul", "input": ["PartitionedCall/model/tf.math.add/Add", "PartitionedCall/model/tf.math.sigmoid/Sigmoid"], "attr": {"T": {"type": "DT_FLOAT"}}}, {"name": "PartitionedCall/model/tf.compat.v1.pad_1/Pad", "op": "Pad", "input": ["PartitionedCall/model/tf.math.multiply_2/Mul", "3252"], "attr": {"Tpaddings": {"type": "DT_INT32"}, "T": {"type": "DT_FLOAT"}}}, {"name": "PartitionedCall/model/tf.math.add_1/Add", "op": "_FusedConv2D", "input": ["PartitionedCall/model/tf.compat.v1.pad_1/Pad", "3254", "3256"], "device": "/device:CPU:0", "attr": {"num_host_args": {"i": "0"}, "data_format": {"s": "TkhXQw=="}, "filter_format": {"s": "SFdJTw=="}, "fused_ops": {"list": {"s": ["Qmlhc0FkZA=="]}}, "num_args": {"i": "1"}, "strides": {"list": {"i": ["1", "2", "2", "1"]}}, "TArgs": {"list": {"type": ["DT_FLOAT"]}}, "padding": {"s": "VkFMSUQ="}, "use_cudnn_on_gpu": {"b": true}, "leakyrelu_alpha": {"f": 0.2}, "epsilon": {"f": 0.0}, "T": {"type": "DT_FLOAT"}, "explicit_paddings": {"list": {}}, "dilations": {"list": {"i": ["1", "1", "1", "1"]}}}}, {"name": "PartitionedCall/model/tf.math.sigmoid_1/Sigmoid", "op": "Sigmoid", "input": ["PartitionedCall/model/tf.math.add_1/Add"], "attr": {"T": {"type": "DT_FLOAT"}}}, {"name": "PartitionedCall/model/tf.math.multiply_5/Mul", "op": "Mul", "input": ["PartitionedCall/model/tf.math.add_1/Add", "PartitionedCall/model/tf.math.sigmoid_1/Sigmoid"], "attr": {"T": {"type": "DT_FLOAT"}}}, {"name": "PartitionedCall/model/tf.math.add_2/Add", "op": "_FusedConv2D", "input": ["PartitionedCall/model/tf.math.multiply_5/Mul", "3258", "3260"], "device": "/device:CPU:0", "attr": {"num_host_args": {"i": "0"}, "data_format": {"s": "TkhXQw=="}, "filter_format": {"s": "SFdJTw=="}, "strides": {"list": {"i": ["1", "1", "1", "1"]}}, "num_args": {"i": "1"}, "fused_ops": {"list": {"s": ["Qmlhc0FkZA=="]}}, "TArgs": {"list": {"type": ["DT_FLOAT"]}}, "padding": {"s": "U0FNRQ=="}, "use_cudnn_on_gpu": {"b": true}, "leakyrelu_alpha": {"f": 0.2}, "epsilon": {"f": 0.0}, "T": {"type": "DT_FLOAT"}, "explicit_paddings": {"list": {}}, "dilations": {"list": {"i": ["1", "1", "1", "1"]}}}}, {"name": "PartitionedCall/model/tf.math.sigmoid_2/Sigmoid", "op": "Sigmoid", "input": ["PartitionedCall/model/tf.math.add_2/Add"], "attr": {"T": {"type": "DT_FLOAT"}}}, {"name": "PartitionedCall/model/tf.math.multiply_8/Mul", "op": "Mul", "input": ["PartitionedCall/model/tf.math.add_2/Add", "PartitionedCall/model/tf.math.sigmoid_2/Sigmoid"], "attr": {"T": {"type": "DT_FLOAT"}}}, {"name": "PartitionedCall/model/tf.strided_slice/StridedSlice", "op": "StridedSlice", "input": ["PartitionedCall/model/tf.math.multiply_8/Mul", "3274", "3276", "PartitionedCall/model/tf.strided_slice/ones_like"], "attr": {"shrink_axis_mask": {"i": "0"}, "Index": {"type": "DT_INT64"}, "new_axis_mask": {"i": "0"}, "begin_mask": {"i": "15"}, "end_mask": {"i": "7"}, "T": {"type": "DT_FLOAT"}, "ellipsis_mask": {"i": "0"}}}, {"name": "PartitionedCall/model/tf.strided_slice_1/StridedSlice", "op": "StridedSlice", "input": ["PartitionedCall/model/tf.math.multiply_8/Mul", "3262", "3264", "PartitionedCall/model/tf.strided_slice_1/ones_like"], "attr": {"shrink_axis_mask": {"i": "0"}, "Index": {"type": "DT_INT64"}, "new_axis_mask": {"i": "0"}, "begin_mask": {"i": "7"}, "T": {"type": "DT_FLOAT"}, "end_mask": {"i": "7"}, "ellipsis_mask": {"i": "0"}}}, {"name": "PartitionedCall/model/tf.math.add_3/Add", "op": "_FusedConv2D", "input": ["PartitionedCall/model/tf.strided_slice_1/StridedSlice", "3266", "3268"], "device": "/device:CPU:0", "attr": {"num_host_args": {"i": "0"}, "data_format": {"s": "TkhXQw=="}, "filter_format": {"s": "SFdJTw=="}, "strides": {"list": {"i": ["1", "1", "1", "1"]}}, "num_args": {"i": "1"}, "fused_ops": {"list": {"s": ["Qmlhc0FkZA=="]}}, "TArgs": {"list": {"type": ["DT_FLOAT"]}}, "padding": {"s": "U0FNRQ=="}, "use_cudnn_on_gpu": {"b": true}, "leakyrelu_alpha": {"f": 0.2}, "epsilon": {"f": 0.0}, "T": {"type": "DT_FLOAT"}, "explicit_paddings": {"list": {}}, "dilations": {"list": {"i": ["1", "1", "1", "1"]}}}}, {"name": "PartitionedCall/model/tf.math.sigmoid_3/Sigmoid", "op": "Sigmoid", "input": ["PartitionedCall/model/tf.math.add_3/Add"], "attr": {"T": {"type": "DT_FLOAT"}}}, {"name": "PartitionedCall/model/tf.math.multiply_11/Mul", "op": "Mul", "input": ["PartitionedCall/model/tf.math.add_3/Add", "PartitionedCall/model/tf.math.sigmoid_3/Sigmoid"], "attr": {"T": {"type": "DT_FLOAT"}}}, {"name": "PartitionedCall/model/tf.math.add_4/Add", "op": "_FusedConv2D", "input": ["PartitionedCall/model/tf.math.multiply_11/Mul", "3270", "3272"], "device": "/device:CPU:0", "attr": {"num_host_args": {"i": "0"}, "data_format": {"s": "TkhXQw=="}, "filter_format": {"s": "SFdJTw=="}, "fused_ops": {"list": {"s": ["Qmlhc0FkZA=="]}}, "num_args": {"i": "1"}, "strides": {"list": {"i": ["1", "1", "1", "1"]}}, "TArgs": {"list": {"type": ["DT_FLOAT"]}}, "padding": {"s": "U0FNRQ=="}, "use_cudnn_on_gpu": {"b": true}, "leakyrelu_alpha": {"f": 0.2}, "epsilon": {"f": 0.0}, "T": {"type": "DT_FLOAT"}, "explicit_paddings": {"list": {}}, "dilations": {"list": {"i": ["1", "1", "1", "1"]}}}}, {"name": "PartitionedCall/model/tf.math.sigmoid_4/Sigmoid", "op": "Sigmoid", "input": ["PartitionedCall/model/tf.math.add_4/Add"], "attr": {"T": {"type": "DT_FLOAT"}}}, {"name": "PartitionedCall/model/tf.math.multiply_14/Mul", "op": "Mul", "input": ["PartitionedCall/model/tf.math.add_4/Add", "PartitionedCall/model/tf.math.sigmoid_4/Sigmoid"], "attr": {"T": {"type": "DT_FLOAT"}}}, {"name": "PartitionedCall/model/tf.math.add_5/Add", "op": "AddV2", "input": ["PartitionedCall/model/tf.strided_slice_1/StridedSlice", "PartitionedCall/model/tf.math.multiply_14/Mul"], "attr": {"T": {"type": "DT_FLOAT"}}}, {"name": "PartitionedCall/model/tf.concat/concat", "op": "ConcatV2", "input": ["PartitionedCall/model/tf.strided_slice/StridedSlice", "PartitionedCall/model/tf.strided_slice_1/StridedSlice", "PartitionedCall/model/tf.math.add_5/Add", "PartitionedCall/model/tf.concat/concat/axis"], "attr": {"N": {"i": "3"}, "T": {"type": "DT_FLOAT"}, "Tidx": {"type": "DT_INT32"}}}, {"name": "PartitionedCall/model/tf.math.add_6/Add", "op": "_FusedConv2D", "input": ["PartitionedCall/model/tf.concat/concat", "3278", "3280"], "device": "/device:CPU:0", "attr": {"num_host_args": {"i": "0"}, "data_format": {"s": "TkhXQw=="}, "filter_format": {"s": "SFdJTw=="}, "strides": {"list": {"i": ["1", "1", "1", "1"]}}, "num_args": {"i": "1"}, "fused_ops": {"list": {"s": ["Qmlhc0FkZA=="]}}, "TArgs": {"list": {"type": ["DT_FLOAT"]}}, "padding": {"s": "U0FNRQ=="}, "use_cudnn_on_gpu": {"b": true}, "leakyrelu_alpha": {"f": 0.2}, "epsilon": {"f": 0.0}, "T": {"type": "DT_FLOAT"}, "explicit_paddings": {"list": {}}, "dilations": {"list": {"i": ["1", "1", "1", "1"]}}}}, {"name": "PartitionedCall/model/tf.math.sigmoid_5/Sigmoid", "op": "Sigmoid", "input": ["PartitionedCall/model/tf.math.add_6/Add"], "attr": {"T": {"type": "DT_FLOAT"}}}, {"name": "PartitionedCall/model/tf.math.multiply_19/Mul", "op": "Mul", "input": ["PartitionedCall/model/tf.math.add_6/Add", "PartitionedCall/model/tf.math.sigmoid_5/Sigmoid"], "attr": {"T": {"type": "DT_FLOAT"}}}, {"name": "PartitionedCall/model/tf.compat.v1.pad_2/Pad", "op": "Pad", "input": ["PartitionedCall/model/tf.math.multiply_19/Mul", "3282"], "attr": {"Tpaddings": {"type": "DT_INT32"}, "T": {"type": "DT_FLOAT"}}}, {"name": "PartitionedCall/model/tf.math.add_7/Add", "op": "_FusedConv2D", "input": ["PartitionedCall/model/tf.compat.v1.pad_2/Pad", "3284", "3286"], "device": "/device:CPU:0", "attr": {"num_host_args": {"i": "0"}, "data_format": {"s": "TkhXQw=="}, "filter_format": {"s": "SFdJTw=="}, "fused_ops": {"list": {"s": ["Qmlhc0FkZA=="]}}, "num_args": {"i": "1"}, "strides": {"list": {"i": ["1", "2", "2", "1"]}}, "TArgs": {"list": {"type": ["DT_FLOAT"]}}, "padding": {"s": "VkFMSUQ="}, "use_cudnn_on_gpu": {"b": true}, "leakyrelu_alpha": {"f": 0.2}, "epsilon": {"f": 0.0}, "T": {"type": "DT_FLOAT"}, "explicit_paddings": {"list": {}}, "dilations": {"list": {"i": ["1", "1", "1", "1"]}}}}, {"name": "PartitionedCall/model/tf.math.sigmoid_6/Sigmoid", "op": "Sigmoid", "input": ["PartitionedCall/model/tf.math.add_7/Add"], "attr": {"T": {"type": "DT_FLOAT"}}}, {"name": "PartitionedCall/model/tf.math.multiply_22/Mul", "op": "Mul", "input": ["PartitionedCall/model/tf.math.add_7/Add", "PartitionedCall/model/tf.math.sigmoid_6/Sigmoid"], "attr": {"T": {"type": "DT_FLOAT"}}}, {"name": "PartitionedCall/model/tf.math.add_8/Add", "op": "_FusedConv2D", "input": ["PartitionedCall/model/tf.math.multiply_22/Mul", "3288", "3290"], "device": "/device:CPU:0", "attr": {"num_host_args": {"i": "0"}, "data_format": {"s": "TkhXQw=="}, "filter_format": {"s": "SFdJTw=="}, "fused_ops": {"list": {"s": ["Qmlhc0FkZA=="]}}, "num_args": {"i": "1"}, "strides": {"list": {"i": ["1", "1", "1", "1"]}}, "TArgs": {"list": {"type": ["DT_FLOAT"]}}, "padding": {"s": "U0FNRQ=="}, "use_cudnn_on_gpu": {"b": true}, "leakyrelu_alpha": {"f": 0.2}, "epsilon": {"f": 0.0}, "T": {"type": "DT_FLOAT"}, "explicit_paddings": {"list": {}}, "dilations": {"list": {"i": ["1", "1", "1", "1"]}}}}, {"name": "PartitionedCall/model/tf.math.sigmoid_7/Sigmoid", "op": "Sigmoid", "input": ["PartitionedCall/model/tf.math.add_8/Add"], "attr": {"T": {"type": "DT_FLOAT"}}}, {"name": "PartitionedCall/model/tf.math.multiply_25/Mul", "op": "Mul", "input": ["PartitionedCall/model/tf.math.add_8/Add", "PartitionedCall/model/tf.math.sigmoid_7/Sigmoid"], "attr": {"T": {"type": "DT_FLOAT"}}}, {"name": "PartitionedCall/model/tf.strided_slice_2/StridedSlice", "op": "StridedSlice", "input": ["PartitionedCall/model/tf.math.multiply_25/Mul", "3312", "3314", "PartitionedCall/model/tf.strided_slice_2/ones_like"], "attr": {"shrink_axis_mask": {"i": "0"}, "new_axis_mask": {"i": "0"}, "Index": {"type": "DT_INT64"}, "begin_mask": {"i": "15"}, "end_mask": {"i": "7"}, "T": {"type": "DT_FLOAT"}, "ellipsis_mask": {"i": "0"}}}, {"name": "PartitionedCall/model/tf.strided_slice_3/StridedSlice", "op": "StridedSlice", "input": ["PartitionedCall/model/tf.math.multiply_25/Mul", "3292", "3294", "PartitionedCall/model/tf.strided_slice_3/ones_like"], "attr": {"shrink_axis_mask": {"i": "0"}, "Index": {"type": "DT_INT64"}, "new_axis_mask": {"i": "0"}, "begin_mask": {"i": "7"}, "T": {"type": "DT_FLOAT"}, "end_mask": {"i": "7"}, "ellipsis_mask": {"i": "0"}}}, {"name": "PartitionedCall/model/tf.math.add_9/Add", "op": "_FusedConv2D", "input": ["PartitionedCall/model/tf.strided_slice_3/StridedSlice", "3296", "3298"], "device": "/device:CPU:0", "attr": {"num_host_args": {"i": "0"}, "data_format": {"s": "TkhXQw=="}, "filter_format": {"s": "SFdJTw=="}, "fused_ops": {"list": {"s": ["Qmlhc0FkZA=="]}}, "num_args": {"i": "1"}, "strides": {"list": {"i": ["1", "1", "1", "1"]}}, "TArgs": {"list": {"type": ["DT_FLOAT"]}}, "padding": {"s": "U0FNRQ=="}, "use_cudnn_on_gpu": {"b": true}, "leakyrelu_alpha": {"f": 0.2}, "epsilon": {"f": 0.0}, "T": {"type": "DT_FLOAT"}, "explicit_paddings": {"list": {}}, "dilations": {"list": {"i": ["1", "1", "1", "1"]}}}}, {"name": "PartitionedCall/model/tf.math.sigmoid_8/Sigmoid", "op": "Sigmoid", "input": ["PartitionedCall/model/tf.math.add_9/Add"], "attr": {"T": {"type": "DT_FLOAT"}}}, {"name": "PartitionedCall/model/tf.math.multiply_28/Mul", "op": "Mul", "input": ["PartitionedCall/model/tf.math.add_9/Add", "PartitionedCall/model/tf.math.sigmoid_8/Sigmoid"], "attr": {"T": {"type": "DT_FLOAT"}}}, {"name": "PartitionedCall/model/tf.math.add_10/Add", "op": "_FusedConv2D", "input": ["PartitionedCall/model/tf.math.multiply_28/Mul", "3300", "3302"], "device": "/device:CPU:0", "attr": {"num_host_args": {"i": "0"}, "data_format": {"s": "TkhXQw=="}, "filter_format": {"s": "SFdJTw=="}, "strides": {"list": {"i": ["1", "1", "1", "1"]}}, "num_args": {"i": "1"}, "fused_ops": {"list": {"s": ["Qmlhc0FkZA=="]}}, "TArgs": {"list": {"type": ["DT_FLOAT"]}}, "padding": {"s": "U0FNRQ=="}, "use_cudnn_on_gpu": {"b": true}, "leakyrelu_alpha": {"f": 0.2}, "epsilon": {"f": 0.0}, "T": {"type": "DT_FLOAT"}, "explicit_paddings": {"list": {}}, "dilations": {"list": {"i": ["1", "1", "1", "1"]}}}}, {"name": "PartitionedCall/model/tf.math.sigmoid_9/Sigmoid", "op": "Sigmoid", "input": ["PartitionedCall/model/tf.math.add_10/Add"], "attr": {"T": {"type": "DT_FLOAT"}}}, {"name": "PartitionedCall/model/tf.math.multiply_31/Mul", "op": "Mul", "input": ["PartitionedCall/model/tf.math.add_10/Add", "PartitionedCall/model/tf.math.sigmoid_9/Sigmoid"], "attr": {"T": {"type": "DT_FLOAT"}}}, {"name": "PartitionedCall/model/tf.math.add_11/Add", "op": "AddV2", "input": ["PartitionedCall/model/tf.strided_slice_3/StridedSlice", "PartitionedCall/model/tf.math.multiply_31/Mul"], "attr": {"T": {"type": "DT_FLOAT"}}}, {"name": "PartitionedCall/model/tf.math.add_12/Add", "op": "_FusedConv2D", "input": ["PartitionedCall/model/tf.math.add_11/Add", "3304", "3306"], "device": "/device:CPU:0", "attr": {"num_host_args": {"i": "0"}, "data_format": {"s": "TkhXQw=="}, "filter_format": {"s": "SFdJTw=="}, "strides": {"list": {"i": ["1", "1", "1", "1"]}}, "num_args": {"i": "1"}, "fused_ops": {"list": {"s": ["Qmlhc0FkZA=="]}}, "TArgs": {"list": {"type": ["DT_FLOAT"]}}, "padding": {"s": "U0FNRQ=="}, "use_cudnn_on_gpu": {"b": true}, "leakyrelu_alpha": {"f": 0.2}, "epsilon": {"f": 0.0}, "T": {"type": "DT_FLOAT"}, "explicit_paddings": {"list": {}}, "dilations": {"list": {"i": ["1", "1", "1", "1"]}}}}, {"name": "PartitionedCall/model/tf.math.sigmoid_10/Sigmoid", "op": "Sigmoid", "input": ["PartitionedCall/model/tf.math.add_12/Add"], "attr": {"T": {"type": "DT_FLOAT"}}}, {"name": "PartitionedCall/model/tf.math.multiply_36/Mul", "op": "Mul", "input": ["PartitionedCall/model/tf.math.add_12/Add", "PartitionedCall/model/tf.math.sigmoid_10/Sigmoid"], "attr": {"T": {"type": "DT_FLOAT"}}}, {"name": "PartitionedCall/model/tf.math.add_13/Add", "op": "_FusedConv2D", "input": ["PartitionedCall/model/tf.math.multiply_36/Mul", "3308", "3310"], "device": "/device:CPU:0", "attr": {"num_host_args": {"i": "0"}, "data_format": {"s": "TkhXQw=="}, "filter_format": {"s": "SFdJTw=="}, "fused_ops": {"list": {"s": ["Qmlhc0FkZA=="]}}, "num_args": {"i": "1"}, "strides": {"list": {"i": ["1", "1", "1", "1"]}}, "TArgs": {"list": {"type": ["DT_FLOAT"]}}, "padding": {"s": "U0FNRQ=="}, "use_cudnn_on_gpu": {"b": true}, "leakyrelu_alpha": {"f": 0.2}, "epsilon": {"f": 0.0}, "T": {"type": "DT_FLOAT"}, "explicit_paddings": {"list": {}}, "dilations": {"list": {"i": ["1", "1", "1", "1"]}}}}, {"name": "PartitionedCall/model/tf.math.sigmoid_11/Sigmoid", "op": "Sigmoid", "input": ["PartitionedCall/model/tf.math.add_13/Add"], "attr": {"T": {"type": "DT_FLOAT"}}}, {"name": "PartitionedCall/model/tf.math.multiply_39/Mul", "op": "Mul", "input": ["PartitionedCall/model/tf.math.add_13/Add", "PartitionedCall/model/tf.math.sigmoid_11/Sigmoid"], "attr": {"T": {"type": "DT_FLOAT"}}}, {"name": "PartitionedCall/model/tf.math.add_14/Add", "op": "AddV2", "input": ["PartitionedCall/model/tf.math.add_11/Add", "PartitionedCall/model/tf.math.multiply_39/Mul"], "attr": {"T": {"type": "DT_FLOAT"}}}, {"name": "PartitionedCall/model/tf.concat_1/concat", "op": "ConcatV2", "input": ["PartitionedCall/model/tf.strided_slice_2/StridedSlice", "PartitionedCall/model/tf.strided_slice_3/StridedSlice", "PartitionedCall/model/tf.math.add_11/Add", "PartitionedCall/model/tf.math.add_14/Add", "PartitionedCall/model/tf.concat_1/concat/axis"], "attr": {"N": {"i": "4"}, "T": {"type": "DT_FLOAT"}, "Tidx": {"type": "DT_INT32"}}}, {"name": "PartitionedCall/model/tf.math.add_15/Add", "op": "_FusedConv2D", "input": ["PartitionedCall/model/tf.concat_1/concat", "3316", "3318"], "device": "/device:CPU:0", "attr": {"num_host_args": {"i": "0"}, "data_format": {"s": "TkhXQw=="}, "filter_format": {"s": "SFdJTw=="}, "fused_ops": {"list": {"s": ["Qmlhc0FkZA=="]}}, "num_args": {"i": "1"}, "strides": {"list": {"i": ["1", "1", "1", "1"]}}, "TArgs": {"list": {"type": ["DT_FLOAT"]}}, "padding": {"s": "U0FNRQ=="}, "use_cudnn_on_gpu": {"b": true}, "leakyrelu_alpha": {"f": 0.2}, "epsilon": {"f": 0.0}, "T": {"type": "DT_FLOAT"}, "explicit_paddings": {"list": {}}, "dilations": {"list": {"i": ["1", "1", "1", "1"]}}}}, {"name": "PartitionedCall/model/tf.math.sigmoid_12/Sigmoid", "op": "Sigmoid", "input": ["PartitionedCall/model/tf.math.add_15/Add"], "attr": {"T": {"type": "DT_FLOAT"}}}, {"name": "PartitionedCall/model/tf.math.multiply_44/Mul", "op": "Mul", "input": ["PartitionedCall/model/tf.math.add_15/Add", "PartitionedCall/model/tf.math.sigmoid_12/Sigmoid"], "attr": {"T": {"type": "DT_FLOAT"}}}, {"name": "PartitionedCall/model/tf.compat.v1.pad_3/Pad", "op": "Pad", "input": ["PartitionedCall/model/tf.math.multiply_44/Mul", "3320"], "attr": {"Tpaddings": {"type": "DT_INT32"}, "T": {"type": "DT_FLOAT"}}}, {"name": "PartitionedCall/model/tf.math.add_16/Add", "op": "_FusedConv2D", "input": ["PartitionedCall/model/tf.compat.v1.pad_3/Pad", "3322", "3324"], "device": "/device:CPU:0", "attr": {"num_host_args": {"i": "0"}, "data_format": {"s": "TkhXQw=="}, "filter_format": {"s": "SFdJTw=="}, "fused_ops": {"list": {"s": ["Qmlhc0FkZA=="]}}, "num_args": {"i": "1"}, "strides": {"list": {"i": ["1", "2", "2", "1"]}}, "TArgs": {"list": {"type": ["DT_FLOAT"]}}, "padding": {"s": "VkFMSUQ="}, "use_cudnn_on_gpu": {"b": true}, "leakyrelu_alpha": {"f": 0.2}, "epsilon": {"f": 0.0}, "T": {"type": "DT_FLOAT"}, "explicit_paddings": {"list": {}}, "dilations": {"list": {"i": ["1", "1", "1", "1"]}}}}, {"name": "PartitionedCall/model/tf.math.sigmoid_13/Sigmoid", "op": "Sigmoid", "input": ["PartitionedCall/model/tf.math.add_16/Add"], "attr": {"T": {"type": "DT_FLOAT"}}}, {"name": "PartitionedCall/model/tf.math.multiply_47/Mul", "op": "Mul", "input": ["PartitionedCall/model/tf.math.add_16/Add", "PartitionedCall/model/tf.math.sigmoid_13/Sigmoid"], "attr": {"T": {"type": "DT_FLOAT"}}}, {"name": "PartitionedCall/model/tf.math.add_17/Add", "op": "_FusedConv2D", "input": ["PartitionedCall/model/tf.math.multiply_47/Mul", "3326", "3328"], "device": "/device:CPU:0", "attr": {"num_host_args": {"i": "0"}, "data_format": {"s": "TkhXQw=="}, "filter_format": {"s": "SFdJTw=="}, "fused_ops": {"list": {"s": ["Qmlhc0FkZA=="]}}, "num_args": {"i": "1"}, "strides": {"list": {"i": ["1", "1", "1", "1"]}}, "TArgs": {"list": {"type": ["DT_FLOAT"]}}, "padding": {"s": "U0FNRQ=="}, "use_cudnn_on_gpu": {"b": true}, "leakyrelu_alpha": {"f": 0.2}, "epsilon": {"f": 0.0}, "T": {"type": "DT_FLOAT"}, "explicit_paddings": {"list": {}}, "dilations": {"list": {"i": ["1", "1", "1", "1"]}}}}, {"name": "PartitionedCall/model/tf.math.sigmoid_14/Sigmoid", "op": "Sigmoid", "input": ["PartitionedCall/model/tf.math.add_17/Add"], "attr": {"T": {"type": "DT_FLOAT"}}}, {"name": "PartitionedCall/model/tf.math.multiply_50/Mul", "op": "Mul", "input": ["PartitionedCall/model/tf.math.add_17/Add", "PartitionedCall/model/tf.math.sigmoid_14/Sigmoid"], "attr": {"T": {"type": "DT_FLOAT"}}}, {"name": "PartitionedCall/model/tf.strided_slice_4/StridedSlice", "op": "StridedSlice", "input": ["PartitionedCall/model/tf.math.multiply_50/Mul", "3350", "3352", "PartitionedCall/model/tf.strided_slice_4/ones_like"], "attr": {"shrink_axis_mask": {"i": "0"}, "new_axis_mask": {"i": "0"}, "Index": {"type": "DT_INT64"}, "begin_mask": {"i": "15"}, "end_mask": {"i": "7"}, "T": {"type": "DT_FLOAT"}, "ellipsis_mask": {"i": "0"}}}, {"name": "PartitionedCall/model/tf.strided_slice_5/StridedSlice", "op": "StridedSlice", "input": ["PartitionedCall/model/tf.math.multiply_50/Mul", "3330", "3332", "PartitionedCall/model/tf.strided_slice_5/ones_like"], "attr": {"shrink_axis_mask": {"i": "0"}, "new_axis_mask": {"i": "0"}, "Index": {"type": "DT_INT64"}, "begin_mask": {"i": "7"}, "T": {"type": "DT_FLOAT"}, "end_mask": {"i": "7"}, "ellipsis_mask": {"i": "0"}}}, {"name": "PartitionedCall/model/tf.math.add_18/Add", "op": "_FusedConv2D", "input": ["PartitionedCall/model/tf.strided_slice_5/StridedSlice", "3334", "3336"], "device": "/device:CPU:0", "attr": {"num_host_args": {"i": "0"}, "data_format": {"s": "TkhXQw=="}, "filter_format": {"s": "SFdJTw=="}, "fused_ops": {"list": {"s": ["Qmlhc0FkZA=="]}}, "num_args": {"i": "1"}, "strides": {"list": {"i": ["1", "1", "1", "1"]}}, "TArgs": {"list": {"type": ["DT_FLOAT"]}}, "padding": {"s": "U0FNRQ=="}, "use_cudnn_on_gpu": {"b": true}, "leakyrelu_alpha": {"f": 0.2}, "epsilon": {"f": 0.0}, "T": {"type": "DT_FLOAT"}, "explicit_paddings": {"list": {}}, "dilations": {"list": {"i": ["1", "1", "1", "1"]}}}}, {"name": "PartitionedCall/model/tf.math.sigmoid_15/Sigmoid", "op": "Sigmoid", "input": ["PartitionedCall/model/tf.math.add_18/Add"], "attr": {"T": {"type": "DT_FLOAT"}}}, {"name": "PartitionedCall/model/tf.math.multiply_53/Mul", "op": "Mul", "input": ["PartitionedCall/model/tf.math.add_18/Add", "PartitionedCall/model/tf.math.sigmoid_15/Sigmoid"], "attr": {"T": {"type": "DT_FLOAT"}}}, {"name": "PartitionedCall/model/tf.math.add_19/Add", "op": "_FusedConv2D", "input": ["PartitionedCall/model/tf.math.multiply_53/Mul", "3338", "3340"], "device": "/device:CPU:0", "attr": {"num_host_args": {"i": "0"}, "data_format": {"s": "TkhXQw=="}, "filter_format": {"s": "SFdJTw=="}, "strides": {"list": {"i": ["1", "1", "1", "1"]}}, "num_args": {"i": "1"}, "fused_ops": {"list": {"s": ["Qmlhc0FkZA=="]}}, "TArgs": {"list": {"type": ["DT_FLOAT"]}}, "padding": {"s": "U0FNRQ=="}, "use_cudnn_on_gpu": {"b": true}, "leakyrelu_alpha": {"f": 0.2}, "epsilon": {"f": 0.0}, "T": {"type": "DT_FLOAT"}, "explicit_paddings": {"list": {}}, "dilations": {"list": {"i": ["1", "1", "1", "1"]}}}}, {"name": "PartitionedCall/model/tf.math.sigmoid_16/Sigmoid", "op": "Sigmoid", "input": ["PartitionedCall/model/tf.math.add_19/Add"], "attr": {"T": {"type": "DT_FLOAT"}}}, {"name": "PartitionedCall/model/tf.math.multiply_56/Mul", "op": "Mul", "input": ["PartitionedCall/model/tf.math.add_19/Add", "PartitionedCall/model/tf.math.sigmoid_16/Sigmoid"], "attr": {"T": {"type": "DT_FLOAT"}}}, {"name": "PartitionedCall/model/tf.math.add_20/Add", "op": "AddV2", "input": ["PartitionedCall/model/tf.strided_slice_5/StridedSlice", "PartitionedCall/model/tf.math.multiply_56/Mul"], "attr": {"T": {"type": "DT_FLOAT"}}}, {"name": "PartitionedCall/model/tf.math.add_21/Add", "op": "_FusedConv2D", "input": ["PartitionedCall/model/tf.math.add_20/Add", "3342", "3344"], "device": "/device:CPU:0", "attr": {"num_host_args": {"i": "0"}, "data_format": {"s": "TkhXQw=="}, "filter_format": {"s": "SFdJTw=="}, "fused_ops": {"list": {"s": ["Qmlhc0FkZA=="]}}, "num_args": {"i": "1"}, "strides": {"list": {"i": ["1", "1", "1", "1"]}}, "TArgs": {"list": {"type": ["DT_FLOAT"]}}, "padding": {"s": "U0FNRQ=="}, "use_cudnn_on_gpu": {"b": true}, "leakyrelu_alpha": {"f": 0.2}, "epsilon": {"f": 0.0}, "T": {"type": "DT_FLOAT"}, "explicit_paddings": {"list": {}}, "dilations": {"list": {"i": ["1", "1", "1", "1"]}}}}, {"name": "PartitionedCall/model/tf.math.sigmoid_17/Sigmoid", "op": "Sigmoid", "input": ["PartitionedCall/model/tf.math.add_21/Add"], "attr": {"T": {"type": "DT_FLOAT"}}}, {"name": "PartitionedCall/model/tf.math.multiply_61/Mul", "op": "Mul", "input": ["PartitionedCall/model/tf.math.add_21/Add", "PartitionedCall/model/tf.math.sigmoid_17/Sigmoid"], "attr": {"T": {"type": "DT_FLOAT"}}}, {"name": "PartitionedCall/model/tf.math.add_22/Add", "op": "_FusedConv2D", "input": ["PartitionedCall/model/tf.math.multiply_61/Mul", "3346", "3348"], "device": "/device:CPU:0", "attr": {"num_host_args": {"i": "0"}, "data_format": {"s": "TkhXQw=="}, "filter_format": {"s": "SFdJTw=="}, "strides": {"list": {"i": ["1", "1", "1", "1"]}}, "num_args": {"i": "1"}, "fused_ops": {"list": {"s": ["Qmlhc0FkZA=="]}}, "TArgs": {"list": {"type": ["DT_FLOAT"]}}, "padding": {"s": "U0FNRQ=="}, "use_cudnn_on_gpu": {"b": true}, "leakyrelu_alpha": {"f": 0.2}, "epsilon": {"f": 0.0}, "T": {"type": "DT_FLOAT"}, "explicit_paddings": {"list": {}}, "dilations": {"list": {"i": ["1", "1", "1", "1"]}}}}, {"name": "PartitionedCall/model/tf.math.sigmoid_18/Sigmoid", "op": "Sigmoid", "input": ["PartitionedCall/model/tf.math.add_22/Add"], "attr": {"T": {"type": "DT_FLOAT"}}}, {"name": "PartitionedCall/model/tf.math.multiply_64/Mul", "op": "Mul", "input": ["PartitionedCall/model/tf.math.add_22/Add", "PartitionedCall/model/tf.math.sigmoid_18/Sigmoid"], "attr": {"T": {"type": "DT_FLOAT"}}}, {"name": "PartitionedCall/model/tf.math.add_23/Add", "op": "AddV2", "input": ["PartitionedCall/model/tf.math.add_20/Add", "PartitionedCall/model/tf.math.multiply_64/Mul"], "attr": {"T": {"type": "DT_FLOAT"}}}, {"name": "PartitionedCall/model/tf.concat_2/concat", "op": "ConcatV2", "input": ["PartitionedCall/model/tf.strided_slice_4/StridedSlice", "PartitionedCall/model/tf.strided_slice_5/StridedSlice", "PartitionedCall/model/tf.math.add_20/Add", "PartitionedCall/model/tf.math.add_23/Add", "PartitionedCall/model/tf.concat_2/concat/axis"], "attr": {"N": {"i": "4"}, "Tidx": {"type": "DT_INT32"}, "T": {"type": "DT_FLOAT"}}}, {"name": "PartitionedCall/model/tf.math.add_24/Add", "op": "_FusedConv2D", "input": ["PartitionedCall/model/tf.concat_2/concat", "3354", "3356"], "device": "/device:CPU:0", "attr": {"num_host_args": {"i": "0"}, "data_format": {"s": "TkhXQw=="}, "filter_format": {"s": "SFdJTw=="}, "fused_ops": {"list": {"s": ["Qmlhc0FkZA=="]}}, "num_args": {"i": "1"}, "strides": {"list": {"i": ["1", "1", "1", "1"]}}, "TArgs": {"list": {"type": ["DT_FLOAT"]}}, "padding": {"s": "U0FNRQ=="}, "use_cudnn_on_gpu": {"b": true}, "leakyrelu_alpha": {"f": 0.2}, "epsilon": {"f": 0.0}, "T": {"type": "DT_FLOAT"}, "explicit_paddings": {"list": {}}, "dilations": {"list": {"i": ["1", "1", "1", "1"]}}}}, {"name": "PartitionedCall/model/tf.math.sigmoid_19/Sigmoid", "op": "Sigmoid", "input": ["PartitionedCall/model/tf.math.add_24/Add"], "attr": {"T": {"type": "DT_FLOAT"}}}, {"name": "PartitionedCall/model/tf.math.multiply_69/Mul", "op": "Mul", "input": ["PartitionedCall/model/tf.math.add_24/Add", "PartitionedCall/model/tf.math.sigmoid_19/Sigmoid"], "attr": {"T": {"type": "DT_FLOAT"}}}, {"name": "PartitionedCall/model/tf.compat.v1.pad_4/Pad", "op": "Pad", "input": ["PartitionedCall/model/tf.math.multiply_69/Mul", "3358"], "attr": {"Tpaddings": {"type": "DT_INT32"}, "T": {"type": "DT_FLOAT"}}}, {"name": "PartitionedCall/model/tf.math.add_25/Add", "op": "_FusedConv2D", "input": ["PartitionedCall/model/tf.compat.v1.pad_4/Pad", "3360", "3362"], "device": "/device:CPU:0", "attr": {"num_host_args": {"i": "0"}, "data_format": {"s": "TkhXQw=="}, "filter_format": {"s": "SFdJTw=="}, "strides": {"list": {"i": ["1", "2", "2", "1"]}}, "num_args": {"i": "1"}, "fused_ops": {"list": {"s": ["Qmlhc0FkZA=="]}}, "TArgs": {"list": {"type": ["DT_FLOAT"]}}, "padding": {"s": "VkFMSUQ="}, "use_cudnn_on_gpu": {"b": true}, "leakyrelu_alpha": {"f": 0.2}, "epsilon": {"f": 0.0}, "T": {"type": "DT_FLOAT"}, "explicit_paddings": {"list": {}}, "dilations": {"list": {"i": ["1", "1", "1", "1"]}}}}, {"name": "PartitionedCall/model/tf.math.sigmoid_20/Sigmoid", "op": "Sigmoid", "input": ["PartitionedCall/model/tf.math.add_25/Add"], "attr": {"T": {"type": "DT_FLOAT"}}}, {"name": "PartitionedCall/model/tf.math.multiply_72/Mul", "op": "Mul", "input": ["PartitionedCall/model/tf.math.add_25/Add", "PartitionedCall/model/tf.math.sigmoid_20/Sigmoid"], "attr": {"T": {"type": "DT_FLOAT"}}}, {"name": "PartitionedCall/model/tf.math.add_26/Add", "op": "_FusedConv2D", "input": ["PartitionedCall/model/tf.math.multiply_72/Mul", "3364", "3366"], "device": "/device:CPU:0", "attr": {"num_host_args": {"i": "0"}, "data_format": {"s": "TkhXQw=="}, "filter_format": {"s": "SFdJTw=="}, "fused_ops": {"list": {"s": ["Qmlhc0FkZA=="]}}, "num_args": {"i": "1"}, "strides": {"list": {"i": ["1", "1", "1", "1"]}}, "TArgs": {"list": {"type": ["DT_FLOAT"]}}, "padding": {"s": "U0FNRQ=="}, "use_cudnn_on_gpu": {"b": true}, "leakyrelu_alpha": {"f": 0.2}, "epsilon": {"f": 0.0}, "T": {"type": "DT_FLOAT"}, "explicit_paddings": {"list": {}}, "dilations": {"list": {"i": ["1", "1", "1", "1"]}}}}, {"name": "PartitionedCall/model/tf.math.sigmoid_21/Sigmoid", "op": "Sigmoid", "input": ["PartitionedCall/model/tf.math.add_26/Add"], "attr": {"T": {"type": "DT_FLOAT"}}}, {"name": "PartitionedCall/model/tf.math.multiply_75/Mul", "op": "Mul", "input": ["PartitionedCall/model/tf.math.add_26/Add", "PartitionedCall/model/tf.math.sigmoid_21/Sigmoid"], "attr": {"T": {"type": "DT_FLOAT"}}}, {"name": "PartitionedCall/model/tf.strided_slice_6/StridedSlice", "op": "StridedSlice", "input": ["PartitionedCall/model/tf.math.multiply_75/Mul", "3380", "3382", "PartitionedCall/model/tf.strided_slice_6/ones_like"], "attr": {"shrink_axis_mask": {"i": "0"}, "new_axis_mask": {"i": "0"}, "Index": {"type": "DT_INT64"}, "begin_mask": {"i": "15"}, "end_mask": {"i": "7"}, "T": {"type": "DT_FLOAT"}, "ellipsis_mask": {"i": "0"}}}, {"name": "PartitionedCall/model/tf.strided_slice_7/StridedSlice", "op": "StridedSlice", "input": ["PartitionedCall/model/tf.math.multiply_75/Mul", "3368", "3370", "PartitionedCall/model/tf.strided_slice_7/ones_like"], "attr": {"shrink_axis_mask": {"i": "0"}, "Index": {"type": "DT_INT64"}, "new_axis_mask": {"i": "0"}, "begin_mask": {"i": "7"}, "end_mask": {"i": "7"}, "T": {"type": "DT_FLOAT"}, "ellipsis_mask": {"i": "0"}}}, {"name": "PartitionedCall/model/tf.math.add_27/Add", "op": "_FusedConv2D", "input": ["PartitionedCall/model/tf.strided_slice_7/StridedSlice", "3372", "3374"], "device": "/device:CPU:0", "attr": {"num_host_args": {"i": "0"}, "data_format": {"s": "TkhXQw=="}, "filter_format": {"s": "SFdJTw=="}, "fused_ops": {"list": {"s": ["Qmlhc0FkZA=="]}}, "num_args": {"i": "1"}, "strides": {"list": {"i": ["1", "1", "1", "1"]}}, "TArgs": {"list": {"type": ["DT_FLOAT"]}}, "padding": {"s": "U0FNRQ=="}, "use_cudnn_on_gpu": {"b": true}, "leakyrelu_alpha": {"f": 0.2}, "epsilon": {"f": 0.0}, "T": {"type": "DT_FLOAT"}, "explicit_paddings": {"list": {}}, "dilations": {"list": {"i": ["1", "1", "1", "1"]}}}}, {"name": "PartitionedCall/model/tf.math.sigmoid_22/Sigmoid", "op": "Sigmoid", "input": ["PartitionedCall/model/tf.math.add_27/Add"], "attr": {"T": {"type": "DT_FLOAT"}}}, {"name": "PartitionedCall/model/tf.math.multiply_78/Mul", "op": "Mul", "input": ["PartitionedCall/model/tf.math.add_27/Add", "PartitionedCall/model/tf.math.sigmoid_22/Sigmoid"], "attr": {"T": {"type": "DT_FLOAT"}}}, {"name": "PartitionedCall/model/tf.math.add_28/Add", "op": "_FusedConv2D", "input": ["PartitionedCall/model/tf.math.multiply_78/Mul", "3376", "3378"], "device": "/device:CPU:0", "attr": {"num_host_args": {"i": "0"}, "data_format": {"s": "TkhXQw=="}, "filter_format": {"s": "SFdJTw=="}, "fused_ops": {"list": {"s": ["Qmlhc0FkZA=="]}}, "num_args": {"i": "1"}, "strides": {"list": {"i": ["1", "1", "1", "1"]}}, "TArgs": {"list": {"type": ["DT_FLOAT"]}}, "padding": {"s": "U0FNRQ=="}, "use_cudnn_on_gpu": {"b": true}, "leakyrelu_alpha": {"f": 0.2}, "epsilon": {"f": 0.0}, "T": {"type": "DT_FLOAT"}, "explicit_paddings": {"list": {}}, "dilations": {"list": {"i": ["1", "1", "1", "1"]}}}}, {"name": "PartitionedCall/model/tf.math.sigmoid_23/Sigmoid", "op": "Sigmoid", "input": ["PartitionedCall/model/tf.math.add_28/Add"], "attr": {"T": {"type": "DT_FLOAT"}}}, {"name": "PartitionedCall/model/tf.math.multiply_81/Mul", "op": "Mul", "input": ["PartitionedCall/model/tf.math.add_28/Add", "PartitionedCall/model/tf.math.sigmoid_23/Sigmoid"], "attr": {"T": {"type": "DT_FLOAT"}}}, {"name": "PartitionedCall/model/tf.math.add_29/Add", "op": "AddV2", "input": ["PartitionedCall/model/tf.strided_slice_7/StridedSlice", "PartitionedCall/model/tf.math.multiply_81/Mul"], "attr": {"T": {"type": "DT_FLOAT"}}}, {"name": "PartitionedCall/model/tf.concat_3/concat", "op": "ConcatV2", "input": ["PartitionedCall/model/tf.strided_slice_6/StridedSlice", "PartitionedCall/model/tf.strided_slice_7/StridedSlice", "PartitionedCall/model/tf.math.add_29/Add", "PartitionedCall/model/tf.concat_3/concat/axis"], "attr": {"N": {"i": "3"}, "T": {"type": "DT_FLOAT"}, "Tidx": {"type": "DT_INT32"}}}, {"name": "PartitionedCall/model/tf.math.add_30/Add", "op": "_FusedConv2D", "input": ["PartitionedCall/model/tf.concat_3/concat", "3384", "3386"], "device": "/device:CPU:0", "attr": {"num_host_args": {"i": "0"}, "data_format": {"s": "TkhXQw=="}, "filter_format": {"s": "SFdJTw=="}, "strides": {"list": {"i": ["1", "1", "1", "1"]}}, "num_args": {"i": "1"}, "fused_ops": {"list": {"s": ["Qmlhc0FkZA=="]}}, "TArgs": {"list": {"type": ["DT_FLOAT"]}}, "padding": {"s": "U0FNRQ=="}, "use_cudnn_on_gpu": {"b": true}, "leakyrelu_alpha": {"f": 0.2}, "epsilon": {"f": 0.0}, "T": {"type": "DT_FLOAT"}, "explicit_paddings": {"list": {}}, "dilations": {"list": {"i": ["1", "1", "1", "1"]}}}}, {"name": "PartitionedCall/model/tf.math.sigmoid_24/Sigmoid", "op": "Sigmoid", "input": ["PartitionedCall/model/tf.math.add_30/Add"], "attr": {"T": {"type": "DT_FLOAT"}}}, {"name": "PartitionedCall/model/tf.math.multiply_86/Mul", "op": "Mul", "input": ["PartitionedCall/model/tf.math.add_30/Add", "PartitionedCall/model/tf.math.sigmoid_24/Sigmoid"], "attr": {"T": {"type": "DT_FLOAT"}}}, {"name": "PartitionedCall/model/tf.math.add_31/Add", "op": "_FusedConv2D", "input": ["PartitionedCall/model/tf.math.multiply_86/Mul", "3388", "3390"], "device": "/device:CPU:0", "attr": {"num_host_args": {"i": "0"}, "data_format": {"s": "TkhXQw=="}, "filter_format": {"s": "SFdJTw=="}, "fused_ops": {"list": {"s": ["Qmlhc0FkZA=="]}}, "num_args": {"i": "1"}, "strides": {"list": {"i": ["1", "1", "1", "1"]}}, "TArgs": {"list": {"type": ["DT_FLOAT"]}}, "padding": {"s": "U0FNRQ=="}, "use_cudnn_on_gpu": {"b": true}, "leakyrelu_alpha": {"f": 0.2}, "epsilon": {"f": 0.0}, "T": {"type": "DT_FLOAT"}, "explicit_paddings": {"list": {}}, "dilations": {"list": {"i": ["1", "1", "1", "1"]}}}}, {"name": "PartitionedCall/model/tf.math.sigmoid_25/Sigmoid", "op": "Sigmoid", "input": ["PartitionedCall/model/tf.math.add_31/Add"], "attr": {"T": {"type": "DT_FLOAT"}}}, {"name": "PartitionedCall/model/tf.math.multiply_89/Mul", "op": "Mul", "input": ["PartitionedCall/model/tf.math.add_31/Add", "PartitionedCall/model/tf.math.sigmoid_25/Sigmoid"], "attr": {"T": {"type": "DT_FLOAT"}}}, {"name": "PartitionedCall/model/tf.math.reduce_mean/Mean", "op": "Mean", "input": ["PartitionedCall/model/tf.math.multiply_89/Mul", "PartitionedCall/model/tf.math.reduce_mean/Mean/reduction_indices"], "attr": {"T": {"type": "DT_FLOAT"}, "Tidx": {"type": "DT_INT32"}, "keep_dims": {"b": true}}}, {"name": "PartitionedCall/model/tf.compat.v1.transpose/transpose", "op": "Transpose", "input": ["PartitionedCall/model/tf.math.reduce_mean/Mean", "PartitionedCall/model/tf.compat.v1.transpose/transpose/perm"], "attr": {"Tperm": {"type": "DT_INT32"}, "T": {"type": "DT_FLOAT"}}}, {"name": "PartitionedCall/model/tf.reshape/Reshape", "op": "Reshape", "input": ["PartitionedCall/model/tf.compat.v1.transpose/transpose", "PartitionedCall/model/tf.reshape/Reshape/shape"], "attr": {"T": {"type": "DT_FLOAT"}, "Tshape": {"type": "DT_INT32"}}}, {"name": "PartitionedCall/model/tf.__operators__.add/AddV2", "op": "_FusedMatMul", "input": ["PartitionedCall/model/tf.reshape/Reshape", "3392", "3396"], "device": "/device:CPU:0", "attr": {"transpose_a": {"b": false}, "transpose_b": {"b": false}, "fused_ops": {"list": {"s": ["Qmlhc0FkZA=="]}}, "num_args": {"i": "1"}, "leakyrelu_alpha": {"f": 0.2}, "epsilon": {"f": 0.0}, "T": {"type": "DT_FLOAT"}}}, {"name": "PartitionedCall/model/output0/Softmax_147", "op": "Softmax", "input": ["PartitionedCall/model/tf.__operators__.add/AddV2"], "attr": {"T": {"type": "DT_FLOAT"}}}, {"name": "Identity", "op": "Identity", "input": ["PartitionedCall/model/output0/Softmax_147"], "attr": {"T": {"type": "DT_FLOAT"}}}], "library": {}, "versions": {"producer": 1482}}, "weightsManifest": [{"paths": ["group1-shard1of2.bin", "group1-shard2of2.bin"], "weights": [{"name": "3380", "shape": [4], "dtype": "int32"}, {"name": "3382", "shape": [4], "dtype": "int32"}, {"name": "PartitionedCall/model/tf.strided_slice_6/ones_like", "shape": [4], "dtype": "int32"}, {"name": "3350", "shape": [4], "dtype": "int32"}, {"name": "3352", "shape": [4], "dtype": "int32"}, {"name": "PartitionedCall/model/tf.strided_slice_4/ones_like", "shape": [4], "dtype": "int32"}, {"name": "3312", "shape": [4], "dtype": "int32"}, {"name": "3314", "shape": [4], "dtype": "int32"}, {"name": "PartitionedCall/model/tf.strided_slice_2/ones_like", "shape": [4], "dtype": "int32"}, {"name": "3274", "shape": [4], "dtype": "int32"}, {"name": "3276", "shape": [4], "dtype": "int32"}, {"name": "PartitionedCall/model/tf.strided_slice/ones_like", "shape": [4], "dtype": "int32"}, {"name": "3246", "shape": [4, 2], "dtype": "int32"}, {"name": "3248", "shape": [3, 3, 3, 16], "dtype": "float32"}, {"name": "3250", "shape": [16], "dtype": "float32"}, {"name": "3252", "shape": [4, 2], "dtype": "int32"}, {"name": "3254", "shape": [3, 3, 16, 32], "dtype": "float32"}, {"name": "3256", "shape": [32], "dtype": "float32"}, {"name": "3258", "shape": [1, 1, 32, 32], "dtype": "float32"}, {"name": "3260", "shape": [32], "dtype": "float32"}, {"name": "3262", "shape": [4], "dtype": "int32"}, {"name": "3264", "shape": [4], "dtype": "int32"}, {"name": "PartitionedCall/model/tf.strided_slice_1/ones_like", "shape": [4], "dtype": "int32"}, {"name": "3266", "shape": [3, 3, 16, 16], "dtype": "float32"}, {"name": "3268", "shape": [16], "dtype": "float32"}, {"name": "3270", "shape": [3, 3, 16, 16], "dtype": "float32"}, {"name": "3272", "shape": [16], "dtype": "float32"}, {"name": "PartitionedCall/model/tf.concat/concat/axis", "shape": [], "dtype": "int32"}, {"name": "3278", "shape": [1, 1, 48, 32], "dtype": "float32"}, {"name": "3280", "shape": [32], "dtype": "float32"}, {"name": "3282", "shape": [4, 2], "dtype": "int32"}, {"name": "3284", "shape": [3, 3, 32, 64], "dtype": "float32"}, {"name": "3286", "shape": [64], "dtype": "float32"}, {"name": "3288", "shape": [1, 1, 64, 64], "dtype": "float32"}, {"name": "3290", "shape": [64], "dtype": "float32"}, {"name": "3292", "shape": [4], "dtype": "int32"}, {"name": "3294", "shape": [4], "dtype": "int32"}, {"name": "PartitionedCall/model/tf.strided_slice_3/ones_like", "shape": [4], "dtype": "int32"}, {"name": "3296", "shape": [3, 3, 32, 32], "dtype": "float32"}, {"name": "3298", "shape": [32], "dtype": "float32"}, {"name": "3300", "shape": [3, 3, 32, 32], "dtype": "float32"}, {"name": "3302", "shape": [32], "dtype": "float32"}, {"name": "3304", "shape": [3, 3, 32, 32], "dtype": "float32"}, {"name": "3306", "shape": [32], "dtype": "float32"}, {"name": "3308", "shape": [3, 3, 32, 32], "dtype": "float32"}, {"name": "3310", "shape": [32], "dtype": "float32"}, {"name": "PartitionedCall/model/tf.concat_1/concat/axis", "shape": [], "dtype": "int32"}, {"name": "3316", "shape": [1, 1, 128, 64], "dtype": "float32"}, {"name": "3318", "shape": [64], "dtype": "float32"}, {"name": "3320", "shape": [4, 2], "dtype": "int32"}, {"name": "3322", "shape": [3, 3, 64, 128], "dtype": "float32"}, {"name": "3324", "shape": [128], "dtype": "float32"}, {"name": "3326", "shape": [1, 1, 128, 128], "dtype": "float32"}, {"name": "3328", "shape": [128], "dtype": "float32"}, {"name": "3330", "shape": [4], "dtype": "int32"}, {"name": "3332", "shape": [4], "dtype": "int32"}, {"name": "PartitionedCall/model/tf.strided_slice_5/ones_like", "shape": [4], "dtype": "int32"}, {"name": "3334", "shape": [3, 3, 64, 64], "dtype": "float32"}, {"name": "3336", "shape": [64], "dtype": "float32"}, {"name": "3338", "shape": [3, 3, 64, 64], "dtype": "float32"}, {"name": "3340", "shape": [64], "dtype": "float32"}, {"name": "3342", "shape": [3, 3, 64, 64], "dtype": "float32"}, {"name": "3344", "shape": [64], "dtype": "float32"}, {"name": "3346", "shape": [3, 3, 64, 64], "dtype": "float32"}, {"name": "3348", "shape": [64], "dtype": "float32"}, {"name": "PartitionedCall/model/tf.concat_2/concat/axis", "shape": [], "dtype": "int32"}, {"name": "3354", "shape": [1, 1, 256, 128], "dtype": "float32"}, {"name": "3356", "shape": [128], "dtype": "float32"}, {"name": "3358", "shape": [4, 2], "dtype": "int32"}, {"name": "3360", "shape": [3, 3, 128, 256], "dtype": "float32"}, {"name": "3362", "shape": [256], "dtype": "float32"}, {"name": "3364", "shape": [1, 1, 256, 256], "dtype": "float32"}, {"name": "3366", "shape": [256], "dtype": "float32"}, {"name": "3368", "shape": [4], "dtype": "int32"}, {"name": "3370", "shape": [4], "dtype": "int32"}, {"name": "PartitionedCall/model/tf.strided_slice_7/ones_like", "shape": [4], "dtype": "int32"}, {"name": "3372", "shape": [3, 3, 128, 128], "dtype": "float32"}, {"name": "3374", "shape": [128], "dtype": "float32"}, {"name": "3376", "shape": [3, 3, 128, 128], "dtype": "float32"}, {"name": "3378", "shape": [128], "dtype": "float32"}, {"name": "PartitionedCall/model/tf.concat_3/concat/axis", "shape": [], "dtype": "int32"}, {"name": "3384", "shape": [1, 1, 384, 256], "dtype": "float32"}, {"name": "3386", "shape": [256], "dtype": "float32"}, {"name": "3388", "shape": [1, 1, 256, 1280], "dtype": "float32"}, {"name": "3390", "shape": [1280], "dtype": "float32"}, {"name": "PartitionedCall/model/tf.math.reduce_mean/Mean/reduction_indices", "shape": [2], "dtype": "int32"}, {"name": "PartitionedCall/model/tf.compat.v1.transpose/transpose/perm", "shape": [4], "dtype": "int32"}, {"name": "PartitionedCall/model/tf.reshape/Reshape/shape", "shape": [2], "dtype": "int32"}, {"name": "3392", "shape": [1280, 5], "dtype": "float32"}, {"name": "3396", "shape": [5], "dtype": "float32"}]}]}